__________________________________________________________________________________________________
Layer (type)                    Output Shape         Param #     Connected to                     
==================================================================================================
input_1 (InputLayer)            (None, 400)          0                                            
__________________________________________________________________________________________________
embedding_1 (Embedding)         (None, 400, 128)     11339136    input_1[0][0]                    
__________________________________________________________________________________________________
reshape_1 (Reshape)             (None, 400, 128, 1)  0           embedding_1[0][0]                
__________________________________________________________________________________________________
conv2d_1 (Conv2D)               (None, 398, 1, 512)  197120      reshape_1[0][0]                  
__________________________________________________________________________________________________
conv2d_2 (Conv2D)               (None, 397, 1, 512)  262656      reshape_1[0][0]                  
__________________________________________________________________________________________________
conv2d_3 (Conv2D)               (None, 396, 1, 512)  328192      reshape_1[0][0]                  
__________________________________________________________________________________________________
max_pooling2d_1 (MaxPooling2D)  (None, 1, 1, 512)    0           conv2d_1[0][0]                   
__________________________________________________________________________________________________
max_pooling2d_2 (MaxPooling2D)  (None, 1, 1, 512)    0           conv2d_2[0][0]                   
__________________________________________________________________________________________________
max_pooling2d_3 (MaxPooling2D)  (None, 1, 1, 512)    0           conv2d_3[0][0]                   
__________________________________________________________________________________________________
concatenate_1 (Concatenate)     (None, 3, 1, 512)    0           max_pooling2d_1[0][0]            
                                                                 max_pooling2d_2[0][0]            
                                                                 max_pooling2d_3[0][0]            
__________________________________________________________________________________________________
flatten_1 (Flatten)             (None, 1536)         0           concatenate_1[0][0]              
__________________________________________________________________________________________________
dropout_1 (Dropout)             (None, 1536)         0           flatten_1[0][0]                  
__________________________________________________________________________________________________
dense_1 (Dense)                 (None, 2)            3074        dropout_1[0][0]                  
==================================================================================================
Total params: 12,130,178
Trainable params: 12,130,178
Non-trainable params: 0
__________________________________________________________________________________________________
Loading testing data
2019-07-16 03:23:54.357477: I tensorflow/stream_executor/dso_loader.cc:152] successfully opened CUDA library libcublas.so.10.0 locally
…
